24-01/lstm/lstm_model_epochs100.pth (torch, 2723 bytes, 6 tensors)

lstm.weight_ih_l0 f4 [16, 10]
0.4520976 -0.23811404 -0.029274248 0.20747234 -0.360317 -0.07197726 0.2688965 -0.48618963
0.102921136 -0.3103197 -0.08726516 -0.20912558 0.06733176 0.090890825 0.022890022 -0.74757147
0.29336515 0.17613417 -0.055051245 0.032561235 0.18587558 -0.30101898 0.56881374 -0.25561097
-0.3804972 -0.092674196 -0.41773957 0.008516043 0.26940575 -0.27475095 -0.48182255 0.44874316
-0.22309282 -0.22577016 -0.075827636 -0.42091966 -0.180748 -0.7493059 -0.03663633 -0.028944585
0.45345366 0.5524706 0.0075639198 0.25877008 -0.5608295 -0.4705402 0.1851446 -0.37289876
0.18422312 0.17782843 0.031136103 0.40930107 0.15086797 0.8652753 0.6313486 0.22824112
0.62082744 0.88606393 1.0168116 0.5593046 0.52540445 -0.2702177 0.3458348 0.78075826
0.2221029 0.15006265 0.13135353 0.16497427 0.81647325 0.4974102 0.2848595 0.45950472
-0.37458214 0.23315758 0.24117245 0.21904853 0.78031164 0.049559727 -0.25314477 -0.04257087
0.6968387 -0.028545808 0.115848005 -0.25691128 0.25246534 -0.1834292 -0.2213283 0.08138483
0.15150267 0.13025148 -0.29308134 -0.114962764 0.24379592 0.58629274 0.15071061 -0.37621063
-0.20234372 -0.14200523 -0.122669205 0.13171963 0.09080521 -0.060854517 -0.04121172 -0.1825411
0.10280779 -0.12358892 -0.048747625 -0.046290636 -0.07337648 0.03204761 0.25825232 -0.6508458
-0.26902977 0.15369341 -0.12478481 -0.18650001 0.4061747 -0.08681625 -0.18787254 -0.28932273
0.7108735 0.56138736 0.0946942 0.9888731 0.022376657 -0.046323847 0.49022052 0.08697223
0.44608182 0.119718425 -0.4834422 1.8736123 0.24092877 0.49856815 0.4488427 -0.2014232
0.20517148 -0.3843439 0.45856917 0.056864727 0.12699752 -0.19896866 0.4838782 0.09412032
-0.06929777 0.25902534 -0.2157344 -0.034704268 0.65791416 0.69435483 -0.05562358 1.0433716
-0.21695217 -0.014490945 -0.3163203 0.084753536 -0.12146371 0.5706472 0.29705676 -0.2895506
00000000: 5679 e73e 2bd4 73be 8cd0 efbc a173 543e
00000010: 787b b8be d068 93bd cdac 893e d9ed f8be
00000020: 51c8 d23d 39e2 9ebe 14b8 b2bd 0425 56be
00000030: 3ce5 893d f824 ba3d db83 bb3c d860 3fbf
00000040: f533 963e 845c 343e 6a7d 61bd ee5e 053d
00000050: 2b56 3e3e 291f 9abe c79d 113f 71df 82be
00000060: 87d0 c2be f8cb bdbd f6e1 d5be e086 0b3c
00000070: 8def 893e 28ac 8cbe 72b1 f6be aac1 e53e
00000080: 7272 64be 4b30 67be 854b 9bbd c882 d7be
00000090: 0116 39be 83d2 3fbf fa0f 16bd 321d edbc
000000a0: 142b e83e b76e 0d3f c2da f73b 837d 843e
000000b0: 8692 0fbf a5ea f0be 8c96 3d3e 96ec bebe
000000c0: fca4 3c3e a818 363e 2411 ff3c e98f d13e
000000d0: 227d 1a3e af82 5d3f 10a0 213f 0ab8 693e
000000e0: 8cee 1e3f 16d5 623f e226 823f 962e 0f3f
000000f0: e880 063f f959 8abe 4211 b13e c6df 473f
00000100: f16e 633e 06aa 193e 8a81 063e 04ef 283e
00000110: 6404 513f 8dac fe3e 1bd9 913e 3444 eb3e
00000120: 3bc9 bfbe dcc0 6e3e e9f5 763e 424e 603e
00000130: 81c2 473f 24ff 4a3d 319c 81be cb5e 2ebd
00000140: 0564 323f e6d8 e9bc b841 ed3d e089 83be
00000150: 2343 813e ddd4 3bbe e3a3 62be 17ad a63d
00000160: 8423 1b3e a560 053e c20e 96be 9971 ebbd
00000170: a3a5 793e 4817 163f e253 1a3e ae9e c0be
00000180: 3133 4fbe d269 11be fe39 fbbd 83e1 063e
00000190: 15f8 b93d 9642 79bd 9fcd 28bd 0eec 3abe
000001a0: e48c d23d 301c fdbd 97ab 47bd 409b 3dbd
000001b0: 6846 96bd 5b44 033d a639 843e d59d 26bf
000001c0: 45be 89be ce61 1d3e 2e8f ffbd dcf9 3ebe
000001d0: 21f6 cf3e b8cc b1bd a961 40be 1c22 94be
000001e0: cefb 353f 15b7 0f3f 08ef c13d ca26 7d3f
000001f0: 404f b73c 13be 3dbd 2ffe fa3e 7f1e b23d
00000200: d664 e43e ef2e f53d bc85 f7be 87d2 ef3f
00000210: 08b6 763e 5344 ff3e b6ce e53e e241 4ebe
00000220: 7918 523e b9c8 c4be 94c9 ea3e fdea 683d
00000230: a30b 023e 71be 4bbe e2be f73e 28c2 c03d
00000240: fdeb 8dbd f89e 843e 7be9 5cbe 1026 0ebd
00000250: 106d 283f 3dc1 313f 8dd5 63bd 338d 853f
00000260: b628 5ebe 6e6b 6dbc bcf4 a1be 4393 ad3d
00000270: f7c1 f8bd ef15 123f d317 983e fa3f 94be

lstm.weight_hh_l0 f4 [16, 4]
-0.31686574 0.118001945 0.2035856 -0.10517401 -0.7674649 0.12945098 0.37626547 0.47655773
-0.68999267 -0.09439694 -0.17267868 0.043996952 0.4108531 -0.47320962 -0.19910698 -0.28993705
0.35380077 0.6918868 0.36943862 0.22682361 -0.22063485 0.8106987 -0.34875235 -0.56949705
0.3018662 -0.14267673 -0.69647294 0.089310914 0.707978 0.007847669 -0.7215531 -0.20264927
-0.055465534 0.77871996 -0.078081 -0.15690298 0.039139193 0.71810746 0.13367681 -0.06948509
-0.1777386 0.12669231 0.47872028 -0.19851916 -0.12700118 -0.014186976 -0.33309752 0.40088162
0.09375097 0.05258001 -0.49292868 -0.1100037 0.40761626 0.2882526 -0.56492966 -1.8317456
0.24356602 0.018780261 -1.1737803 -0.07668103 0.24642362 0.473339 -0.43712842 -0.3802029
00000000: 3a3c a2be 01ab f13d be78 503e 7965 d7bd
00000010: 9478 44bf cc8e 043e dea5 c03e 60ff f33e
00000020: 5ca3 30bf 2f53 c1bd aed2 30be 2636 343d
00000030: 565b d23e 8848 f2be b3e2 4bbe a172 94be
00000040: 6025 b53e 7e1f 313f 0f27 bd3e 7344 683e
00000050: 1aee 61be f389 4f3f ab8f b2be 8fca 11bf
00000060: 358e 9a3e d919 12be 0d4c 32bf a4e8 b63d
00000070: 0c3e 353f 8293 003c b4b7 38bf 4a83 4fbe
00000080: d42f 63bd 315a 473f eee8 9fbd 2dab 20be
00000090: 6b50 203d e4d5 373f 93e2 083e 334e 8ebd
000000a0: 1c01 36be a1bb 013e d31a f53e 9b48 4bbe
000000b0: 990c 02be 7d70 68bc c28b aabe 5b40 cd3e
000000c0: 8200 c03d 235e 573d 2661 fcbe 9f49 e1bd
000000d0: 14b3 d03e d895 933e 3b9f 10bf a476 eabf
000000e0: 5f69 793e 10d9 993c 6f3e 96bf f20a 9dbd
000000f0: 7956 7c3e 7d59 f23e 4ccf dfbe f4a9 c2be

lstm.bias_ih_l0 f4 [16]
0.20233305 -0.32588154 0.23055293 -0.13151853 0.5288483 0.62721264 0.09110637 0.10108493
0.03856354 0.04000093 -0.12554544 0.016121445 0.13700674 0.15021166 0.5619916 0.5996654
00000000: 6530 4f3e f2d9 a6be 1116 6c3e cbac 06be
00000010: 9a62 073f 0291 203f fa95 ba3d 9e05 cf3d
00000020: cdf4 1d3d 04d8 233d fc8e 00be 1f11 843c
00000030: 7f4b 0c3e 16d1 193e aede 0f3f ac83 193f

lstm.bias_hh_l0 f4 [16]
0.055208378 -0.028592266 0.13268097 0.21967378 0.3174218 0.35780528 0.51008064 -0.056285817
-0.34723368 0.0056035924 0.16840161 0.13244554 0.0022644924 -0.5006993 0.39982972 0.5093802
00000000: 2e22 623d 543a eabc 85dd 073e 2af2 603e
00000010: 1c85 a23e 4132 b73e a594 023f f58b 66bd
00000020: 9dc8 b1be 579e b73b 7971 2c3e ce9f 073e
00000030: e167 143b d42d 00bf 7bb6 cc3e be66 023f

fc.weight f4 [10, 4]
0.8878788 -0.47646514 -0.13542193 -0.2524386 -0.4748916 0.12396385 0.02958079 -1.1854489
0.4142326 0.3344412 -0.41126108 -0.38481006 0.1239709 0.3177958 -0.6250893 -0.021853335
0.5715575 0.13469532 -0.2125654 -0.44390002 0.02150341 0.23995374 -0.7775118 -0.11871705
0.3888762 -0.49427244 -0.3149846 -0.32897618 -0.3230998 -0.13575427 -0.21904662 0.32736516
0.16189954 -0.47017515 -0.27137247 -0.33090112 0.3540475 -0.49182746 -0.34166166 -0.26048407
00000000: 064c 633f 3df3 f3be 0cac 0abe a23f 81be
00000010: fe24 f3be c2e0 fd3d 6a53 f23c cabc 97bf
00000020: 4c16 d43e e13b ab3e d090 d2be d305 c5be
00000030: 75e4 fd3d 22b6 a23e da05 20bf c405 b3bc
00000040: 9851 123f 92ed 093e bfaa 59be dd46 e3be
00000050: eb27 b03c 6fb6 753e 030b 47bf ed21 f3bd
00000060: c81a c73e 4711 fdbe a945 a1be 916f a8be
00000070: 566d a5be 2b03 0bbe c24d 60be 689c a73e
00000080: fec8 253e ccba f0be 55f1 8abe df6b a9be
00000090: b745 b53e cfd0 fbbe 47ee aebe 2b5e 85be

fc.bias f4 [10]
0.09391403 0.18113993 0.17995365 0.13983415 0.2378363 0.06576042 0.08436319 0.67106485
0.32592896 0.13307507
00000000: 0056 c03d bf7c 393e c545 383e af30 0f3e
00000010: 5c8b 733e 66ad 863d 9cc6 ac3d e8ca 2b3f
00000020: 29e0 a63e d544 083e
