24-01/lstm/lstm_modelHealth_epochs2000.pth (torch, 3107 bytes, 6 tensors)

lstm.weight_ih_l0 f4 [16, 15]
00000000: 8ed2 e9be 364c 6a3e e26d e3bf e0a6 bdbf
00000010: c14e b7bf 516e 89bf 77f2 f240 bdac 0cc0
00000020: af5d 1140 d870 923f ea55 873f 203f 1ec0
00000030: 68ee 693f ea16 f3bd 69f2 4f3f cb9f 11bf
00000040: 6510 95bf 943d 28bf 8e4d 0ebf 0949 67be
00000050: f106 57bf 884f 103f eae6 8d3e eb20 0040
00000060: d246 403e 1782 a9be aa4c 20c0 e311 96bb
00000070: d3bb c3bf bc0e 4b3f 16aa 41bd 6e6e 84bf
00000080: c536 3dbe dc89 edbe ae29 83bf 0c45 ac3e
00000090: 731a fb3f 34bc b23f 95b5 c73f 3c51 55bf
000000a0: 63d2 51bd 7786 2d40 acd2 50bf 343c bcc0
000000b0: ac1b 503f 7ebb 4a3e 1461 203c 6387 afbe
000000c0: 372b 16bf 208f cbbe dd47 8abf 2d3c 46bf
000000d0: 5a12 ec3e dbf4 2fbe 6cfa 07c0 11d8 07bf
000000e0: 2322 463f 23cf d73e 1290 15bf 745f f4be
000000f0: 2a1e ddbf d01a 1f3f d41a 6e3f 9809 4d3f
00000100: b2e6 9b3f cd95 ec3d 31ba 52bf 5aca d2bd
00000110: f94c 633f b833 a540 7445 3540 83d9 5140
00000120: 1bb9 a0bf 909c dc3f 8ef1 0240 dd37 ccbe
00000130: 2b6d dfbd d6fb 7d3f de08 b5be 7a36 323e
00000140: 0eb1 09bf c467 1140 f958 293f d665 3740
00000150: 2f4a 9c40 64fa eb3f f01f 6e3f 524e 223e
00000160: 7d9a 8ebf a815 b03e f410 4bbf d23c 823f
00000170: 8e64 603e c9d7 733f 4894 d83e 7c9d e93e
00000180: 7912 5140 ae33 2f40 9bd9 fc3f 7bae 5f3f
00000190: ddc4 8b40 f3b1 49c0 3114 38c0 5de6 adc0
000001a0: b794 afbf a865 d7be a80b 1540 3bab 9140
000001b0: 0e46 3f40 9998 6a40 5b05 603d 55e1 0140
000001c0: 77c8 7cbf 42e2 973f 9a45 07bf dd2c 11c0
000001d0: 80e0 e7bf 63e1 123e 8171 3e40 597b e0bf
000001e0: 7c48 d6be 341c ddbe d619 073e 04b4 2bbf
000001f0: dea0 aebd 3d0c c63f 6189 9f3f 80fd cabf
00000200: 2bce 4d3e e10c ca3f 9d87 d03f c70d b63f
00000210: e473 0ebf cd8a fbbe f78c 7fbe 841c 4a3f
00000220: 0943 a63c f8f4 7cbe 0730 2bbf c395 be3d
00000230: 7230 363f 0f51 2940 4920 4cc0 8d33 92bf
00000240: bbaf 66be f1f9 d4be 53ce ba3f 44ee f4be
00000250: 6aaf 38be 275a b3bc 7d4c 49bd 81ad 043f
00000260: aada 913e 80cf 0f3f 436e 5440 76e6 1dbe
00000270: 8619 4041 4232 2f3e d6b8 993e 8b3b 8a3d
00000280: 1e53 cbbf 4d14 c63e 0899 6b3e df21 83bd
00000290: 3126 ac3e 2ba1 9dbf cc1e 703f 9636 82bf
000002a0: 7da1 9bbd f78a b63c 75c3 503e 3b8a 17bf
000002b0: 51ea 293e f531 e9bf 6489 b8bf b7d0 87bb
000002c0: c191 97bd 349a cd3d 31c2 af3d 3e12 2f3f
000002d0: 724f 0040 2c58 18bf 06a1 41bf 0317 c63f
000002e0: 9785 c43e c20a f0bf 00b4 6940 e856 7f3d
000002f0: 2222 8fbe efb2 98bc 8e57 30bf 539e 8abe
00000300: b80a 8f3e e121 2e3f f314 89be 86ae d23e
00000310: 0754 553f e40b 4c3f 40a5 42bf 7232 373e
00000320: d345 7bbf 815f 4f40 0df7 c03f acf1 19c0
00000330: 75b4 7ebf 9c5b e13f 3310 5d3e d7d3 3a40
00000340: cebc 4dbf 5121 83be 9df4 d6bf adb0 a53f
00000350: e324 853e 908e 3fbd 3184 42bf 7f95 1c3e
00000360: b7d7 a7be bcb6 7bbf d51b ecbe 11d0 85bf
00000370: 233c e93f 4b29 f83f 0085 883f df60 b240
00000380: c927 503f 2a47 d9be ba49 97bc a640 a73f
00000390: cd39 13bf 4b55 7cbf 4b98 b63d 0f82 8240
000003a0: fdb3 e13f 6033 a6bf 1a3a debd ab1c 3e3f
000003b0: 7958 2abf 6714 a93f 5529 1f3f f831 043f
-0.45668453 0.22880635 -1.7767909 -1.4816551 -1.4320909 -1.0736791 7.5920978 -2.198043
2.271343 1.1440687 1.0573094 -2.4726028 0.91379404 -0.11869605 0.81229264 -0.5688445
-1.1645628 -0.6571896 -0.5558709 -0.22586454 -0.83994967 0.56371355 0.27715236 2.0020092
0.18777016 -0.33107063 -2.5046792 -0.004579769 -1.5291694 0.7931936 -0.047281347 -1.03462
-0.18477924 -0.4639424 -1.0247095 0.3364643 1.9617447 1.3963685 1.560229 -0.8332708
-0.05122603 2.711332 -0.8157146 -5.882349 0.81292224 0.19798085 0.00978877 -0.3428298
-0.5865969 -0.39757633 -1.0803181 -0.7743557 0.4610775 -0.17183249 -2.1246595 -0.53064066
0.7739584 0.4215022 -0.5842296 -0.47729075 -1.727483 0.6215029 0.93009686 0.80092764
1.2179778 0.1155201 -0.82315356 -0.10292502 0.88789326 5.1625633 2.832364 3.2789009
-1.255649 1.7235279 2.0459933 -0.3988637 -0.10909494 0.99212396 -0.35358328 0.17403594
-0.5378579 2.2719584 0.66151386 2.8655906 4.8840556 1.8435788 0.9301748 0.1585019
-1.1140896 0.34391522 -0.79322743 1.0174811 0.21913359 0.95251137 0.4230063 0.45627964
3.2667525 2.7375293 1.9753908 0.8737561 4.367781 -3.1514862 -2.8762324 -5.4343705
-1.3717259 -0.42069745 2.3288364 4.552152 2.9886508 3.6655638 0.054692607 2.0293782
-0.98743385 1.1865923 -0.5284058 -2.2683632 -1.8115387 0.1434379 2.9756777 -1.7537643
-0.41852176 -0.4318558 0.1319345 -0.6707156 -0.08526777 1.5472485 1.24638 -1.5858612
0.20098178 1.578518 1.6291386 1.4222955 -0.55645585 -0.49129334 -0.24956118 0.7894976
0.020295637 -0.24702823 -0.6687016 0.093059085 0.7116767 2.6455724 -3.1894705 -1.1421982
-0.22527973 -0.4159694 1.4594215 -0.47838032 -0.18035665 -0.021893574 -0.04914521 0.51827246
0.2848714 0.56175995 3.3192298 -0.15419945 12.006231 0.17109016 0.3002383 0.06749638
-1.588474 0.38687363 0.23007596 -0.06402945 0.33622888 -1.231481 0.9379699 -1.0172908
-0.07599161 0.02228306 0.20387061 -0.591953 0.16593291 -1.8218371 -1.4416928 -0.004144754
-0.07400847 0.100391775 0.08581961 0.6838721 2.004849 -0.5950954 -0.7563633 1.5475773
0.3838317 -1.8753283 3.6516113 0.06233874 -0.2795573 -0.01864001 -0.688836 -0.27073917
0.27937865 0.68020445 -0.26773795 0.41148776 0.8333134 0.79705644 -0.760334 0.17890337
-0.9815342 3.240204 1.5075394 -2.4053755 -0.99494106 1.7606082 0.21588211 2.9191797
-0.8036622 -0.25611356 -1.67934 1.2944542 0.26004705 -0.046766818 -0.7598296 0.15291403
-0.32781765 -0.98325706 -0.46114984 -1.0454122 1.8221477 1.9387602 1.0665588 5.574325
0.8131071 -0.42437106 -0.018467773 1.3066604 -0.5751007 -0.98567647 0.08915766 4.0783763
1.7633053 -1.2984428 -0.10850926 0.74262494 -0.6654125 1.3209351 0.6217244 0.51638746

lstm.weight_hh_l0 f4 [16, 4]
00000000: 3bcc d740 fe13 07c0 3991 5d40 4099 cdbf
00000010: 92d8 bfbf b61e 0e3f af9d f43f 6a40 f8bd
00000020: 2988 77c0 5109 8e40 9c2c c2bf f4c7 debd
00000030: 9c80 803f f4c0 c3bf f984 fa3f ea17 59c0
00000040: b229 4abe edf3 10c0 3410 ee3f be33 9b40
00000050: aaed 673e 1c49 9f3c 7d50 4440 f5fd 07c0
00000060: c4d2 afbe 9343 12c0 84cb 8bbe 3203 973f
00000070: f5b8 89bf a84a 3ac0 fb59 6dbf d1e5 f8bf
00000080: 8946 a13f 57ac 2dbf 54b6 913f f217 3bc0
00000090: a705 ad3f a5bc 8840 7aba 01c0 b174 a23f
000000a0: bc42 f93e ba8a c1bf 6c4a c1bf afa8 1cc0
000000b0: 8de2 2240 e2e7 993f a671 443f 34f6 c83f
000000c0: 2617 39c0 7b39 2fc0 db69 223f ff57 47c0
000000d0: a7de 3bc0 7f53 82bf b04d 02c0 c881 863f
000000e0: bc30 0ebf bfe1 2fbf 646a e73f d2f5 b2bf
000000f0: cc2d 80bf fec7 2bbf b9cf e83f 65da 1040
6.7436805 -2.1105952 3.4619887 -1.6062393 -1.4987967 0.5551561 1.9110621 -0.12121661
-3.8676856 4.4386373 -1.5169864 -0.10877982 1.0039248 -1.529326 1.957183 -3.3920846
-0.19742468 -2.264888 1.8598695 4.850066 0.22649255 0.019444041 3.0674126 -2.1248753
-0.3434049 -2.2853744 -0.27303708 1.179785 -1.075957 -2.9108067 -0.92715424 -1.9445134
1.2599651 -0.67841095 1.1383767 -2.9233365 1.351735 4.273028 -2.0270066 1.2691861
0.48683727 -1.5120461 -1.5100837 -2.4477956 2.5450776 1.202389 0.76735914 1.5700135
-2.8920379 -2.7378833 0.6344277 -3.1147459 -2.9354646 -1.0181731 -2.0359917 1.0508356
-0.5554311 -0.68703836 1.8079343 -1.3981268 -1.0013976 -0.6710204 1.8188392 2.2633297

lstm.bias_ih_l0 f4 [16]
00000000: 87ba 423f 74dd 533e 80ef 0cbd a9f5 ff3d
00000010: 41b1 90be 02cc 24bf 39fb 893f 9339 6a3e
00000020: aded 09bf 40b5 cfbe 26e2 97be d6af 9fbd
00000030: d181 0d3d 639c 693f c760 f3be e538 f0be
0.7606587 0.20689946 -0.034408092 0.12498028 -0.28260234 -0.6437379 1.0779792 0.22873525
-0.5387829 -0.4056797 -0.29664725 -0.0779721 0.03454763 0.9125425 -0.47534773 -0.46918407

lstm.bias_hh_l0 f4 [16]
00000000: 49db bbbd af84 16be effe f33e 1f0f ed3e
00000010: 0bc6 713e 48e1 a9be ba6a 843e 0d5a ea3e
00000020: f85e ddbd 994d 853e 60ca a9be 7e60 d43d
00000030: c327 a43e ab23 823f 3c82 9abe 6307 0abf
-0.09172685 -0.14699052 0.47655436 0.463006 0.23610704 -0.33179688 0.25862676 0.45771828
-0.108091295 0.26035765 -0.33162212 0.10369967 0.32061586 1.0167135 -0.30177486 -0.5391752

fc.weight f4 [15, 4]
00000000: 996a b83d d60d 8a3e b6ef 343e 02de b9be
00000010: 812e b33e 02bc 9cbe de32 813e 2d93 4cbe
00000020: 7bea 8c3d d26f fabe c835 023e a9d9 35bf
00000030: 612f 3b3e 8b68 d6be 77c5 113e d9f4 2bbf
00000040: 7109 803e b573 dcbe e05a 183e 9398 37bf
00000050: 4bcd 753e 3035 fd3e 48bb 523f eb81 0e3d
00000060: e4b6 9cbd a443 38be 16df b43e 1cbe e63e
00000070: 32ae c2bd aa33 a6be 119c c83d 5384 233f
00000080: e71c 18bf 0a90 363e 6d03 823f 6ca5 33bf
00000090: 350b 08bf 4dd5 9f3e 6e4f ac3f da0c 4bbf
000000a0: feb2 2dbe 007b 5e3e 14d6 2f3f 1cf5 aebe
000000b0: 2d2c 3140 34ec 5b3f 38b8 89bf dd51 fb3f
000000c0: 3b3c 173f fdf0 8d3f c1fb ae3f e8d1 8a3c
000000d0: ff44 3abd 2b5c 2d3f 9549 a13f 57d8 62be
000000e0: 5994 923f 1a60 dd3f 8989 2240 2ec7 56be
0.09004707 0.2696368 0.17669567 -0.3630219 0.34996417 -0.3061219 0.2523412 -0.19978018
0.06880661 -0.48913437 0.12715828 -0.7103525 0.18279792 -0.41876635 0.14235483 -0.6717048
0.25007203 -0.43057027 0.14878416 -0.71717185 0.24004094 0.4945464 0.8231702 0.03479187
-0.07652071 -0.17994553 0.3532645 0.45066917 -0.09505881 -0.32461292 0.09795392 0.63873786
-0.594191 0.17828384 1.0157295 -0.7017429 -0.531421 0.31217423 1.346174 -0.79316485
-0.16962811 0.21726608 0.6868603 -0.3417138 2.7683213 0.8590729 -1.0759344 1.9634358
0.5907628 1.1089169 1.3670579 0.016945794 -0.045475956 0.6771876 1.260058 -0.2215284
1.1451522 1.7294953 2.5396445 -0.20974419

fc.bias f4 [15]
00000000: 9dff 203f 2e0e 973e 55ca 8d3e 47cf 363e
00000010: c36f 363e 5a72 003f d995 453d f147 133e
00000020: 34d3 d43e 9ced b23e ba57 273e 14b5 24bf
00000030: 3943 2c3e 899b b83d 9609 91bc
0.62890035 0.29503006 0.2769343 0.17852508 0.17816071 0.50174487 0.04823861 0.14382912
0.41567385 0.34946907 0.16342059 -0.64338803 0.16822518 0.09014041 -0.017704766
